model.pt (torch_old, 5462 bytes, 6 tensors)

fc1.weight f4 [18, 37]
-0.12044425 -0.066493206 -0.1226744 0.16680036 -0.48709098 -0.07954681 0.20745508 -0.67636055
-0.7989228 0.13607894 -0.77721214 -0.0017118076 -0.46684924 -0.17222774 0.0993463 -0.67875123
0.052044857 -0.16643904 -0.67258626 -0.25146893 -0.62971216 -0.25784066 -0.012097948 0.27263656
-0.54387766 -0.65417606 -0.06935684 -0.16802655 -0.6559118 -0.36664063 -0.23749928 -0.6326577
-0.614249 0.38067082 -0.43080047 0.06542083 0.037929635 0.32416096 -0.35317224 -0.2969463
-0.39688286 -0.36479774 -0.09034092 0.19406617 -0.5988862 -0.12446546 0.11689799 -0.4488225
-0.39962173 -0.646412 0.10592438 -0.57474285 0.18025523 -0.35802254 -0.6181409 -0.2855087
0.20752533 0.0823083 -0.21816926 -0.52062416 0.469721 -0.25319076 -0.5725085 -0.24681124
-0.34376156 0.48432073 -0.40850022 0.11654453 -0.23360871 -0.538392 -0.5195247 0.11801365
0.16617908 -0.076011166 0.10111201 -0.0014608614 0.047168624 0.043986768 -0.0011116711 0.31952193
0.14456342 0.1416667 -0.0022820737 0.0064067096 -0.15795343 0.06924598 0.12108428 0.08998147
0.14170587 0.060557816 0.1456713 -0.0105350595 -0.05065214 0.020704906 -0.45238987 0.14966406
0.16865273 -0.03237769 0.23063731 0.3212549 0.1592037 0.06936965 -0.06259568 -0.8754118
-0.080532685 -0.14750876 0.065319315 -0.10805201 -0.066450104 0.07717207 0.021769542 0.106820025
-0.031362664 0.11495152 0.0103498325 0.01724655 0.21627744 0.15948822 0.031326514 0.02423564
0.21821603 0.22117661 -0.019982668 0.12552583 0.12342289 0.22898506 0.23130654 0.21416332
0.14934863 0.097563215 -0.09986495 0.30864114 0.30862835 0.13185206 0.17009401 0.00075088994
0.11328803 0.23599564 0.23348276 0.4070822 0.30407223 0.10105225 0.029813431 0.23048258
0.02873577 0.11114772 0.058956943 -0.016662104 0.046415083 -0.051708642 -0.07575143 -0.04464323
-0.10463931 -0.19689529 0.07716622 0.08473076 0.2566416 0.18382253 0.076291785 -0.086335674
-0.23668092 -0.14612554 -0.25381574 0.062746935 -0.030906139 -0.06520452 -0.14762582 -0.27012464
0.38905624 -0.06590679 -0.0083524585 0.20758787 0.00421456 0.19729659 -0.09588263 -0.24311702
-0.33584842 -0.43560508 0.110307544 0.18563129 -0.020872625 0.035451755 -0.13400182 -0.18982077
-0.060719457 0.14017849 0.18901794 0.06325197 -0.0014091869 -0.057519827 -0.09825423 -0.08775437
0.017384743 0.03317804 0.10819043 -0.02930138 -0.055052225 -0.047811873 0.017343441 0.19729513
-0.08184734 -0.03120345 -0.013628695 -0.11942854 -0.03719752 0.13952361 0.054189853 -0.096402474
-0.042279385 -0.09611025 0.043148167 -0.04083156 -0.11947924 -0.18948624 -0.3757746 -0.051744796
0.12865189 -0.10580755 0.006574045 0.16285513 0.1738228 0.109101474 -0.0556721 -0.03200821
0.1855971 0.2201653 0.08969841 0.24454898 -0.26222774 -0.0044262353 -0.05353891 0.36650154
0.34050483 0.116319284 0.060127225 0.015587726 -0.26885512 0.21698329 0.20307733 0.25773433
0.24511953 0.0126622375 0.2925739 -0.15725794 -0.20645384 -0.3304638 -0.7831591 -0.06493795
0.13272054 -0.16154003 0.17905013 -0.21642844 0.03221431 0.034906078 0.12033972 0.09897273
00000000: 7aab f6bd 972d 88bd b73c fbbd b7cd 2a3e
00000010: fd63 f9be 70e9 a2bd 1b6f 543e f725 2dbf
00000020: 3486 4cbf 4758 0b3e 60f7 46bf bb5e e0ba
00000030: dd06 efbe 785c 30be 1376 cb3d a4c2 2dbf
00000040: fd2c 553d ff6e 2abe 9d2e 2cbf 89c0 80be
00000050: d134 21bf b103 84be 7936 46bc 0597 8b3e
00000060: 913b 0bbf 1578 27bf f50a 8ebd 270f 2cbe
00000070: d6e9 27bf 52b8 bbbe 0333 73be dbf5 21bf
00000080: 6c3f 1dbf 49e7 c23e e191 dcbe 5bfb 853d
00000090: 1b5c 1b3d 6df8 a53e fed2 b4be 5809 98be
000000a0: 3b34 cbbe c5c6 babe a904 b9bd 48b9 463e
000000b0: 9b50 19bf bfe7 febd 3768 ef3d 10cc e5be
000000c0: 389b ccbe 427b 25bf e2ee d83d 5922 13bf
000000d0: d494 383e bb4e b7be 7b3e 1ebf 322e 92be
000000e0: 8581 543e 4191 a83d c367 5fbe a047 05bf
000000f0: 457f f03e 38a2 81be eb8f 12bf 16bc 7cbe
00000100: 8401 b0be e3f8 f73e f126 d1be e6ae ee3d
00000110: 1f37 6fbe 0fd4 09bf 92ff 04bf 24b1 f13d
00000120: d92a 2a3e beab 9bbd d013 cf3d 607a bfba
00000130: e333 413d 782b 343d 7eb5 91ba 6198 a33e
00000140: 6f08 143e 1311 113e d88e 15bb 60ef d13b
00000150: 8bbe 21be d6d0 8d3d 09fb f73d 3448 b83d
00000160: 581b 113e 790b 783d db2a 153e 3e9b 2cbc
00000170: 9e78 4fbd 569d a93c a59f e7be 8941 193e
00000180: 4db3 2c3e 789e 04bd 302c 6c3e 867b a43e
00000190: 4b06 233e ad11 8e3d 2a32 80bd fd1a 60bf
000001a0: 52ee a4bd 890c 17be 22c6 853d 5f4a ddbd
000001b0: fe16 88bd 640c 9e3d 0a56 b23c 75c4 da3d
000001c0: 2376 00bd b46b eb3d 5892 293c a348 8d3c
000001d0: d577 5d3e e150 233e 3b50 003d d289 c63c
000001e0: 0674 5f3e 1f7c 623e b1b2 a3bc d889 003e
000001f0: 24c5 fc3d 0f7b 6a3e 9fdb 6c3e a14d 5b3e
00000200: d9ee 183e 39cf c73d ff85 ccbd 3606 9e3e
00000210: 8904 9e3e 3a04 073e 202d 2e3e 5fd7 443a
00000220: 8e03 e83d d7a8 713e 1b16 6f3e 146d d03e
00000230: 5baf 9b3e 7bf4 ce3d 4c3b f43c a003 6c3e
00000240: 4767 eb3c 6aa1 e33d d67c 713d f77e 88bc
00000250: be1d 3e3d 71cc 53bd 9123 9bbd d2db 36bd
00000260: 224d d6bd eb9e 49be 5309 9e3d 5287 ad3d
00000270: 8766 833e f93b 3c3e de3e 9c3d c2d0 b0bd
00000280: 7c5c 72be efa1 15be 23f4 81be 7781 803d
00000290: df2e fdbc f389 85bd 392b 17be c74d 8abe
000002a0: 6132 c73e 24fa 86bd c0d8 08bc ea91 543e
000002b0: 4b1a 8a3b 1e08 4a3e 1d5e c4bd abf3 78be
000002c0: 53f4 abbe a107 dfbe ece8 e13d 2116 3e3e
000002d0: 11fd aabc dc35 113d c637 09be 6060 42be
000002e0: f7b4 78bd f38a 0f3e eb8d 413e 408a 813d
000002f0: 77b4 b8ba e999 6bbd 8439 c9bd 90b8 b3bd
00000300: 736a 8e3c b2e5 073d f292 dd3d 7309 f0bc
00000310: 717e 61bd 62d6 43bd d513 8e3c bc07 4a3e
00000320: 949f a7bd 619e ffbc e44a 5fbc f396 f4bd
00000330: 6d5c 18bd 47df 0e3e 2ef6 5d3d a96e c5bd
00000340: 262d 2dbd 73d5 c4bd 22bc 303d fe3e 27bd
00000350: 88b1 f4bd ae08 42be 8765 c0be 5af2 53bd
00000360: 52bd 033e a1b1 d8bd 166b d73b 7fc3 263e
00000370: 9bfe 313e 9870 df3d 6e08 64bd 0a1b 03bd
00000380: 2b0d 3e3e 0373 613e cdb3 b73d 0c6b 7a3e
00000390: b742 86be f409 91bb 9e4b 5bbd 17a6 bb3e
000003a0: a656 ae3e ce38 ee3d f747 763d a963 7f3c
000003b0: 61a7 89be de30 5e3e 81f3 4f3e c1f5 833e
000003c0: 9d00 7b3e 4675 4f3c 3fcc 953e 3a08 21be
000003d0: a368 53be 8d32 a9be 1d7d 48bf 30fe 84bd
000003e0: e5e7 073e c06a 25be eb58 373e 6b9f 5dbe
000003f0: 27f3 033d adf9 0e3d ac74 f63d 37b2 ca3d

fc1.bias f4 [18]
-1.094851 -1.6240443 0.6714682 1.27061 2.0260088 -0.04079068 0.48833573 1.1962719
-0.4205804 0.9979126 -0.32600775 -0.13049212 -0.14248994 -0.8506881 -0.44207487 -0.23251791
-1.0105134 -0.99321854
00000000: 1424 8cbf afe0 cfbf 57e5 2b3f 59a3 a23f
00000010: 21aa 0140 2114 27bd 2407 fa3e 701f 993f
00000020: 5056 d7be 3377 7f3f 7dea a6be ba9f 05be
00000030: e2e8 11be b2c6 59bf a357 e2be 2d19 6ebe
00000040: 8158 81bf 9243 7ebf

fc2.weight f4 [18, 18]
-0.20832077 0.37409055 -0.22346146 -0.37630367 -0.17207155 -0.10180912 -0.0892239 0.2841154
-0.11118502 0.27618432 -0.053005006 -0.24743572 0.114552006 -0.27460912 -0.09658889 0.044773363
-0.12168978 -0.0038661123 0.12137078 -0.17233191 -0.33535606 0.3136492 0.09030726 0.12824066
0.18516338 0.16068664 -0.37860775 -0.021289269 0.25504985 1.1488991 0.012393826 -0.20905921
0.21329702 0.14794809 -1.3589965 -0.3646233 0.47219747 0.034291327 0.024249416 0.17755787
0.19167659 0.06653822 -0.029857283 -0.045393184 0.5366838 -0.31099737 0.11465055 -0.04683919
-0.005093155 -1.2229378 0.5028099 -0.017596224 -0.0038631356 -0.33279708 0.08904069 -0.26948532
0.1478435 0.3705557 -0.085557915 0.12249854 0.14033037 0.1802369 0.334448 0.19275413
-0.04039727 0.18746777 -0.18222144 0.10855366 0.043513123 -0.108093865 -0.023736905 -0.21046488
-0.24965435 -0.21464776 0.2734439 0.0758523 0.28519455 -0.061926432 -0.11622889 0.25627375
0.28161553 0.14894734 -0.4616432 -0.014128124 -0.016823443 0.20537099 0.15233886 -0.23983036
0.6597653 -0.08418748 -0.12490114 -0.13465622 0.011809737 0.15683146 0.27696785 -0.022261789
-0.08913972 0.06641815 0.5301294 -0.17834133 -0.32121477 0.19762878 -0.3268742 0.0098952465
-0.1949491 -0.23102106 0.6328202 -0.124612324 0.4497439 -0.67540467 0.33667415 -0.4009041
0.028047455 0.05613356 -0.018907601 0.004884298 -0.23648302 0.28275356 0.38872257 -0.87135184
-0.008916492 -0.30927965 -0.220583 -0.28157896 0.49795738 0.2857117 0.26075718 -0.2410295
-0.27613884 -0.22295201 -0.08676395 0.27496135 0.29091865 0.11751138 -0.014124848 -0.14250606
-0.14923619 0.29175994 0.3028219 0.35019356 0.6260052 0.048543874 -0.15498887 -0.23851752
0.25604305 -0.007817825 0.6610316 0.04028119 0.3269399 0.2938209 0.04294844 -0.16104026
1.0139414 -0.045558773 -0.055587564 -0.53129286 0.008517325 -0.19282793 0.15690415 -0.36021012
-1.3885503 0.07938884 0.20752324 -0.0063182698 -0.065150775 0.20015843 -0.037912417 -0.27117243
-0.20271075 -0.0053507504 -0.21151362 -0.018595852 0.13749766 0.021557922 -0.38441372 -0.39322224
0.20593323 -0.17025355 -0.15328628 -0.19061269 -0.24416223 -0.08825931 -0.14277528 -0.2051048
-0.16519202 -0.4786708 0.15595123 -0.049498618 0.16085859 -0.01604948 -0.23050457 -0.25085443
0.2576607 0.0628477 -0.008244518 -0.21563959 -0.56228805 -0.4909724 0.34904298 -0.093555585
0.08995092 -0.25357944 -0.27845818 -0.013928134 0.038773265 0.08155169 -0.032121852 -0.20387258
0.03474491 0.16623841 0.10492473 -0.027823944 0.023477754 0.16499317 0.3245332 0.04003265
-0.18221469 -0.14437069 -0.30331534 -0.24831101 0.24221115 0.1607829 0.15250815 0.3725306
0.34094647 0.022616472 -0.3949558 0.13963613 0.3789581 -0.107093185 -0.07774412 -0.076195024
-0.4225078 -0.1311511 -0.20742197 -0.42533994 0.17111963 -0.20646133 -0.10857377 -0.24353366
-0.11575911 -0.04215791 0.123693936 0.10439407 -0.21088961 -0.14275707 -0.13488397 -0.46119902
-0.1637535 0.36089408 0.014544366 -0.04650483 -0.35697663 -0.3972442 0.29309678 0.388583
00000000: 0a52 55be cc88 bf3e 15d3 64be e0aa c0be
00000010: 8633 30be 4d81 d0bd 05bb b6bd 9377 913e
00000020: f9b4 e3bd 0868 8d3e c71b 59bd ca5f 7dbe
00000030: 3e9a ea3d 9199 8cbe 65d0 c5bd 4664 373d
00000040: 7e38 f9bd 9a5e 7dbb 3e91 f83d c777 30be
00000050: cab3 abbe a196 a03e 03f3 b83d 8551 033e
00000060: 789b 3d3e 0a8b 243e e0d8 c1be d566 aebc
00000070: e595 823e 200f 933f 790f 4b3c 9e13 56be
00000080: 896a 5a3e b47f 173e 99f3 adbf e8af babe
00000090: dec3 f13e 1075 0c3d b6a6 c63c bbd1 353e
000000a0: de46 443e 3145 883d 4397 f4bc 34ee 39bd
000000b0: 1c64 093f 0c3b 9fbe e8cd ea3d 73da 3fbd
000000c0: 7be4 a6bb 3a89 9cbf 26b8 003f f525 90bc
000000d0: a92c 7dbb 6164 aabe f75a b63d fbf9 89be
000000e0: 4964 173e 7ab9 bd3e fd38 afbd 84e0 fa3d
000000f0: c4b2 0f3e 0690 383e c53c ab3e 5761 453e
00000100: 9c77 25bd 8df7 3f3e 4298 3abe 6251 de3d
00000110: d13a 323d 5160 ddbd e673 c2bc 1b84 57be
00000120: 64a5 7fbe 9fcc 5bbe d700 8c3e 7358 9b3d
00000130: 0505 923e 92a6 7dbd 6a09 eebd 5036 833e
00000140: e92f 903e a785 183e 7f5c ecbe a679 67bc
00000150: 51d1 89bc c64c 523e b8fe 1b3e 1796 75be
00000160: 61e6 283f 7c6a acbd 2bcc ffbd 52e3 09be
00000170: a17d 413c 6d98 203e bbce 8d3e 5b5e b6bc
00000180: e38e b6bd 3d06 883d 8fb6 073f 1c9f 36be
00000190: 4376 a4be 335f 4a3e 0e5c a7be ac1f 223c
000001a0: bda0 47be c990 6cbe 8100 223f bf34 ffbd
000001b0: d544 e63e 52e7 2cbf 8e60 ac3e 4d43 cdbe
000001c0: c7c3 e53c 4eec 653d 1de4 9abc 760c a03b
000001d0: 9b28 72be 13c5 903e a506 c73e ea10 5fbf
000001e0: 7a16 12bc e759 9ebe 83e0 61be 1e2b 90be
000001f0: 45f4 fe3e ce48 923e f781 853e 70d0 76be
00000200: 1262 8dbe 884d 64be 4cb1 b1bd bcc7 8c3e
00000210: 4af3 943e cea9 f03d e86b 67bc 1ced 11be
00000220: 5fd1 18be 8f61 953e 790b 9b3e 924c b33e
00000230: e041 203f f1d5 463d 67b5 1ebe f03d 74be
00000240: 1318 833e 5616 00bc 5e39 293f e4fd 243d
00000250: ab64 a73e b16f 963e b4ea 2f3d bde7 24be
00000260: d5c8 813f d69b 3abd c9af 63bd cf02 08bf
00000270: 408c 0b3c af74 45be 7bab 203e 766d b8be
00000280: 04bc b1bf 9e96 a23d f980 543e 7d09 cfbb
00000290: c56d 85bd 55f6 4c3e 0d4a 1bbd 1dd7 8abe
000002a0: 6893 4fbe 5955 afbb 0797 58be 5456 98bc
000002b0: 30cc 0c3e 3d9a b03c e0d1 c4be 6d54 c9be
000002c0: 29e0 523e f256 2ebe 14f7 1cbe f92f 43be
000002d0: aa05 7abe 4cc1 b4bd af33 12be fe06 52be
000002e0: 1928 29be 5714 f5be aeb1 1f3e 10bf 4abd
000002f0: 1db8 243e 337a 83bc 6409 6cbe fe6f 80be
00000300: 1aec 833e 4cb6 803d 0414 07bc a0d0 5cbe
00000310: 1cf2 0fbf bc60 fbbe c3b5 b23e 129a bfbd
00000320: 3038 b83d 2ad5 81be 1292 8ebe d432 64bc
00000330: b7d0 1e3d 9304 a73d 3492 03bd f9c3 50be
00000340: ae50 0e3d 673a 2a3e c7e2 d63d 0aef e3bc
00000350: 6b54 c03c f8f3 283e 3729 a63e 47f9 233d
00000360: 7d96 3abe e9d5 13be 264c 9bbe 3e45 7ebe
00000370: 3306 783e 46a4 243e 192b 1c3e 55bc be3e
00000380: 8990 ae3e 2e46 b93c a637 cabe c6fc 0e3e
00000390: cc06 c23e ac53 dbbd 4f38 9fbd 230c 9cbd
000003a0: f152 d8be 794c 06be 6d66 54be 28c6 d9be
000003b0: fc39 2f3e 996a 53be ed5b debd e360 79be
000003c0: 1d13 edbd c6ad 2cbd 3f53 fd3d 8fcc d53d
000003d0: 72f3 57be e92e 12be 061f 0abe 4722 ecbe
000003e0: ffae 27be 1cc7 b83e 7e4b 6e3c d97b 3ebd
000003f0: a4c5 b6be 9763 cbbe c810 963e 5af4 c63e

fc2.bias f4 [18]
-0.8792337 -1.2739714 -0.30075058 0.38209027 0.69741935 0.12004383 -0.013442904 0.104730375
-0.89680165 -0.43757147 -0.7280128 -1.9587132 -0.36527553 -1.2912347 0.0068157683 1.1311843
0.08468425 0.2289403
00000000: 7615 61bf 7f11 a3bf fbfb 99be 56a1 c33e
00000010: 138a 323f 8ad9 f53d a03f 5cbc e17c d63d
00000020: cb94 65bf 5e09 e0be 0c5f 3abf 1db7 fabf
00000030: 6505 bbbe 2e47 a5bf cf56 df3b a6ca 903f
00000040: f06e ad3d 536f 6a3e

fc3.weight f4 [4, 18]
-0.3035547 0.67634904 0.043679144 0.27491146 0.4320231 0.08966792 0.2619272 -0.053111017
0.51446635 -0.106051214 0.29838413 -0.16066363 -0.06430791 -0.0398692 0.18592857 0.4413037
0.43872038 0.29621118 -0.016891535 0.6073535 0.015328235 -0.20377964 0.23483342 0.45208934
0.17046645 0.26560622 0.41897053 0.24872915 0.054723352 0.16921732 -0.19720697 -0.15763496
0.059554923 0.29158577 0.18966666 0.29945445 -0.44303128 0.54627013 -0.1883915 0.2427336
0.22250606 0.070905596 0.11483511 0.23624146 0.1251016 -0.11241434 -0.061429054 0.5189788
0.15331595 0.17580172 0.29117593 0.23671702 0.23482561 0.24647853 -0.28813535 0.17299138
-0.2442834 0.39978963 0.3356482 0.097784884 0.30618685 0.069192685 0.4407777 -0.06396649
0.6358705 -0.11224929 0.21974376 -0.5238913 0.29282045 -0.16425729 0.22535585 0.15230003
00000000: 866b 9bbe 3625 2d3f e7e8 323d 32c1 8c3e
00000010: 2232 dd3e d0a3 b73d 521b 863e f08a 59bd
00000020: 11b4 033f 6131 d9bd cec5 983e 0285 24be
00000030: deb3 83bd e34d 23bd 0f64 3e3e 8ff2 e13e
00000040: f59f e03e fea8 973e 1e60 8abc 857b 1b3f
00000050: 4723 7b3c 9cab 50be 2c78 703e 4178 e73e
00000060: c28e 2e3e 8afd 873e 4e83 d63e dbb2 7e3e
00000070: 9825 603d 4e47 2d3e a0f0 49be 0f6b 21be
00000080: ddef 733d bb4a 953e fa37 423e 1852 993e
00000090: ffd4 e2be 5cd8 0b3f b4e9 40be 288f 783e
000000a0: a1d8 633e f436 913d ac2e eb3d 48e9 713e
000000b0: a21a 003e 7d39 e6bd 089d 7bbd cbdb 043f
000000c0: dbfe 1c3e 5e05 343e 0315 953e f265 723e
000000d0: 2076 703e de64 7c3e 7a86 93be a724 313e
000000e0: 6d25 7abe 3ab1 cc3e 15da ab3e 7143 c83d
000000f0: 86c4 9c3e e5b4 8d3d 9dad e13e dd00 83bd
00000100: 69c8 223f f5e2 e5bd 8204 613e be1d 06bf
00000110: 90ec 953e 1033 28be afc3 663e 8af4 1b3e

fc3.bias f4 [4]
-0.9983715 1.2660627 0.10087658 0.47682744
00000000: 4695 7fbf 580e a23f 6198 ce3d ba22 f43e
